Pytorch/model.pth (torch, 439860 bytes, 6 tensors)

fc1.weight f4 [128, 784]
00000000: c61b 5f3c 4219 c5bc dd1e 9ebc 7a34 1b3d
00000010: 8f39 7cbc 9c4d 2abc 047f c7bc 4250 3fbc
00000020: 9d5a 083b 848f fdbc 6174 ed3b ed93 b4bc
00000030: a18f a63c b742 6cbc 6acc 183d a0ea 69bc
00000040: 5f49 ad3c 74e6 bfbc 84a4 94bc a66c 7e3c
00000050: b724 e9bc f714 bd3c 8d7c 2c3b 9a2a fbbc
00000060: fa30 733c 9871 1e3d 3886 15bc 5a9f 603c
00000070: dd9c 30bb 0894 163d 7d16 7bbc 6a82 03bc
00000080: 890a 443a 1eb8 6b3c 0dc5 9bbc 3249 183d
00000090: a379 813c 4cde 5abb 69ac eb3b 0a54 133d
000000a0: 8da3 d5bc 942f 163d cb99 cfbc 7832 07ba
000000b0: ad11 aa3c 5651 133c f284 553c 1de1 cdbc
000000c0: cf6e e83c 2b1a c03c 5997 b73c 85b7 b53c
000000d0: 9210 d9ba 9fda 983c bf27 00bd 74be 38bc
000000e0: d989 d83c bf57 d8bc 838f ab3b 784a 15bc
000000f0: 6b18 d7bc 865d 90bc 17d4 b73c 7035 39bc
00000100: 1cc0 09bc a4e5 98b9 1256 afbb 417e da3c
00000110: 8dbb d2bc 243b 98bc f112 183c e25b d8ba
00000120: 2f98 f33c 3713 fdbb c050 e5bb 541f c4bc
00000130: 5887 1e3d 6290 d3bb a0ae 163d e5c2 0c3d
00000140: 3b80 2eba 124a 083c 14e2 5abc b213 403c
00000150: 227d 883c 6ae9 9437 3772 b03c 0419 1b3d
00000160: 36d2 80bc 57d8 b83c aab4 693c bb45 bebc
00000170: e172 ff3b c199 093d 915a bb3c 94ca 0f3d
00000180: f04f 49bc 77db e5bb 0906 b3bc 53a2 78bc
00000190: a18f a63c 2391 92bb f9cc 2bbc 37a5 143d
000001a0: b98b e53c 37d5 f33c b1dd efbc 1f76 6fbc
000001b0: e375 083d bd58 4c3b 8a1e 3d3a e851 863c
000001c0: 85c4 55bc 1127 babc 0514 cc3c 6924 94bc
000001d0: fdc4 d7bc 7933 fb3c bfe4 a4bb cda6 cebc
000001e0: f0b1 35bc 574c 003d 2b59 fabc 977c 1f3d
000001f0: bffc ff3c 6e8c a5bc 7446 563c 9134 9cbc
00000200: 4930 883c 3e89 423c f3a0 1b3d 0b32 263d
00000210: 1bb1 b23c 5788 063b cd6d 153c 9d92 ef3c
00000220: bed1 db3a 49ff 52bc 3d65 49bb 5edc 6c3c
00000230: f4c6 cdbc 7d93 f23c 15f3 d53c ed59 9dbc
00000240: f72c 8cbb b5c9 bc3c 9192 c2bb 1109 9a3c
00000250: 3873 efbc dd09 c03c 3fff 8fbc 3f12 4f3b
00000260: 8e30 923c be6e 1d3d 5bd5 1abb 20f6 ccbb
00000270: 36e0 31bd 287e 8fbb 2036 1b3d e911 62bc
00000280: b4c5 233d 1f87 a33a 3593 5f3c f41b b0bc
00000290: 0475 183d 476b 8fbb df58 80bc 8176 98bc
000002a0: 8c38 f5bc 99f1 b3bc 77e1 ebbc 9559 f83c
000002b0: b115 223c b1d8 233c 02f9 553c 5db1 f83b
000002c0: 7d5a f1bb 7d25 8abc 6e8d 8cbc e6b5 b2bc
000002d0: 5620 97bc 059b 5b3c 3992 cb3c d46e a23c
000002e0: 8f90 833c ba9d c93c 62c2 0dbc 167a ccbb
000002f0: e35c 3f3c a7fe 7ebc 102a 09bb 950c 34bc
00000300: e8d8 a1bb eef0 53bc fede 683b 6be4 d43c
00000310: bbb2 b63c 9ba8 0c3d a9b9 9a3c ce65 653c
00000320: cae8 1c3d 694e ebbc 3735 fcbb 4bbf 823c
00000330: 17f7 88bc d93a 073d 211e e93c e3eb 153c
00000340: f3dc f2bc 3ad8 c83c acc7 5bbc 1303 b7b9
00000350: 61ac feba 60ed 263c 82d9 ba3c 02a1 ed3c
00000360: 7079 c73b 41ba 953c 3a88 82bc 3572 693c
00000370: 4122 e2bc c6f0 c33b 6c65 cd3c 8671 2d3c
00000380: c0e0 8d3a 7f71 0a3c 56c8 813c f13a 863b
00000390: 813f 8ebc d43c bb3c c57a 5b3c 266f e7bc
000003a0: 695a 173c e05d c43c c9c3 01bb 6eda 11bc
000003b0: 7721 10bc ef1c adbc 84ae f4bc 3345 b03c
000003c0: 04fc 313c b921 a6bc 9f86 f13c 58bc 9c3c
000003d0: 6138 6dbc 2a97 183d b88c 14bc 2ce5 52bc
000003e0: 05b5 1d3d 433b 133c 2514 a23b f376 b33c
000003f0: 1e80 b03a 29aa bfbb d56e bf3c 3472 8bbc
0.013617462 -0.024059895 -0.019301826 0.037891842 -0.015394582 -0.01039448 -0.024352558 -0.01167685
0.0020805963 -0.030952223 0.0072465395 -0.022043193 0.02033216 -0.014420203 0.03730432 -0.01427713
0.02115315 -0.023425318 -0.018144853 0.0155288335 -0.02845989 0.023081286 0.0026319355 -0.030659962
0.01484322 0.03868255 -0.0091262385 0.013709867 -0.0026948967 0.036762267 -0.015325186 -0.008026699
0.00074783765 0.014387159 -0.01901486 0.03717918 0.015805071 -0.003339666 0.0071921838 0.035968818
-0.026078964 0.036666468 -0.025341889 -0.0005157362 0.020760382 0.00899156 0.013032185 -0.025131756
0.02837315 0.023449978 0.022411035 0.022182235 -0.0016560724 0.018658934 -0.031287905 -0.011275876
0.026432918 -0.026409028 0.005235614 -0.009111993 -0.02625676 -0.01762272 0.02244 -0.011304244
-0.008407619 -0.00029162795 -0.0053508366 0.02667153 -0.025724197 -0.018582888 0.00928186 -0.0016506875
0.029735653 -0.007723238 -0.0069981515 -0.02394072 0.038703293 -0.0064564208 0.03678763 0.034365553
-0.0006656681 0.008318441 -0.013359565 0.011723446 0.01666123 1.7751667e-05 0.021538837 0.037865654
-0.015725236 0.022564096 0.014264265 -0.02322661 0.007795677 0.033593897 0.022870334 0.035105303
-0.012287125 -0.0070146876 -0.021853464 -0.01517542 0.02033216 -0.004472868 -0.010485881 0.036290374
0.028020727 0.029764755 -0.029280515 -0.014615565 0.03331555 0.0031180822 0.00072143285 0.016396478
-0.013047342 -0.022723706 0.02491189 -0.018083768 -0.026339049 0.030664193 -0.0050321515 -0.025226021
-0.011089787 0.031322803 -0.030560097 0.038937178 0.031248448 -0.020208564 0.013078321 -0.019068034
0.016624587 0.011873541 0.03799529 0.04057507 0.021812966 0.0020528042 0.009120417 0.029244715
0.0016770882 -0.012878248 -0.0030730509 0.0144568365 -0.025119282 0.029611344 0.026116887 -0.019207919
-0.004277821 0.0230454 -0.0059378822 0.018803151 -0.029229745 0.023442203 -0.017577766 0.003159657
0.017845418 0.03843569 -0.0023625705 -0.0062549263 -0.043426715 -0.0043790527 0.037893414 -0.013798215
0.039983466 0.0012476182 0.013645937 -0.021497704 0.03722097 -0.004376802 -0.015667377 -0.018611195
-0.02993419 -0.021965789 -0.028794033 0.030316154 0.009892867 0.010000394 0.013059856 0.0075895027
-0.0073655234 -0.016863579 -0.017157283 -0.021815252 -0.018448036 0.013403659 0.024849998 0.019828238
0.016060142 0.024611343 -0.0086523015 -0.0062401397 0.011679861 -0.015563644 -0.0020929612 -0.010989328
-0.0049391873 -0.01293586 0.0035533304 0.025987824 0.022302022 0.034340482 0.018887358 0.014001323
0.038307942 -0.028723912 -0.0076967734 0.015960356 -0.016719384 0.033015106 0.02845675 0.009150478
-0.029646372 0.024517167 -0.013414305 -0.0003490677 -0.0019430035 0.010188431 0.022808794 0.029007439
0.0060874745 0.01827729 -0.015934099 0.0142484205 -0.027604224 0.00597963 0.025072776 0.010586148
0.0010824427 0.008449911 0.015842598 0.004096382 -0.017364265 0.022856154 0.01339597 -0.028251242
0.009237864 0.023970544 -0.0019800535 -0.008902175 -0.008797041 -0.02113196 -0.029868372 0.021517372
0.010863308 -0.020279752 0.029483138 0.019132778 -0.014478774 0.037253536 -0.009066753 -0.012872022
0.03850271 0.008986297 0.004946249 0.021907305 0.0013465916 -0.005849142 0.023368279 -0.01702223

fc1.bias f4 [128]
00000000: 3f6d e3bc aae8 26bd 1403 1dbd 68f5 303c
00000010: 3968 833c cabc dc3c b394 903c 52d8 a2bc
00000020: 3ca4 513b ee9f 12bd 66a4 ca3a 182a e83c
00000030: 423f 5b3b 68ef 943b 319a 53bc a2c7 efbc
00000040: dcfa cbbc 64b9 1e3c 419d 37bd 1523 963c
00000050: e6ef cf3c de01 62bc f32f 51bd 4c2e dfbb
00000060: 12bb dbbc 6ba2 8a3c fd85 203c 0931 463c
00000070: 5832 213d 9da3 58bb c393 acbb e9b9 493c
00000080: ac61 10bd 043a d93c bc63 0dbd 284f e5bb
00000090: bc27 83bc 74a3 d0bb 5841 06bd 38db f7bc
000000a0: d50a 1cbd cd6e 93bc 1a10 46bc f71b 99bc
000000b0: f672 20bd f9f9 dbbb c44d a23c 8148 44bc
000000c0: 92db 4d3c 9b0e f4bc 64f8 0ebd 1cc8 9c3c
000000d0: ddcf c13a 861e 9e3c 7fc9 9d3b d6c5 fabc
000000e0: 193f 40bd 022c e3bc 5f2f 1d3c 8c45 6ebd
000000f0: 2fb2 3bbd 946c 95bc 2447 8abd 794f 6cbc
00000100: 96ef b8bc 1743 2d3d 93dc ea3c 0f31 1b3d
00000110: 8e29 3fbc 5910 babc b91e 07bd 40de d0bc
00000120: 6bef 49bc a651 27bd c8d3 51bb 1c52 1cbd
00000130: b842 e8bc d356 8d3b 2e58 d33c 9974 5ebc
00000140: 78d9 cf3c 76b0 463c c186 933b fd1e 1fbd
00000150: e925 41bc d1e2 8dbc 32b6 b03a c1c3 71bd
00000160: af3c 073d b60d b23b db3b 583c 0933 0abd
00000170: 1de8 aebb b971 d13c bdcb 4b3c ba25 953c
00000180: 853e cfbb e5f4 02bd 9d3e bbbc f3a8 4cbd
00000190: d1a5 86bb d86d 843c 50eb febb 2a44 8f3c
000001a0: 9f21 94bc 5331 d2b9 c7d8 46bc ec9b 983c
000001b0: 469f 573c 5a3c 84bd 8776 b5bc 7d8a 4ebc
000001c0: 95b1 f83a c0ca ce3a bfee c63b 7901 58bc
000001d0: 829e 78bc 0b2d febc 05c0 8b3c cb4e 7fba
000001e0: 4aca 66bc 5d72 a2bc 6463 29bd 28e2 ba3b
000001f0: f7ad 0f3c 1d65 9c3b e197 be38 ba64 073c
-0.027762054 -0.04074923 -0.038333014 0.010800697 0.016040908 0.02694549 0.01764903 -0.01987854
0.003198876 -0.035797052 0.0015460372 0.028340384 0.0033454453 0.004545141 -0.01291518 -0.029269997
-0.024899893 0.009687755 -0.044827703 0.018327275 0.025382947 -0.0137943905 -0.05107112 -0.006810939
-0.0268226 0.01692315 0.00979757 0.012096652 0.039354652 -0.0033056505 -0.005266638 0.012312391
-0.035249397 0.026516922 -0.034518942 -0.0069979616 -0.016010158 -0.0063671414 -0.03277716 -0.030255899
-0.038096268 -0.01799717 -0.0120888 -0.018690092 -0.039172135 -0.0067131487 0.019812472 -0.011980177
0.012564557 -0.02979212 -0.034904853 0.019138388 0.001478668 0.019301664 0.00481528 -0.030611914
-0.046935175 -0.027730945 0.009593814 -0.058171794 -0.045824226 -0.01824025 -0.0675185 -0.014423245
-0.022575181 0.04230031 0.028669631 0.037888583 -0.011667622 -0.022712873 -0.032988284 -0.025496602
-0.012325148 -0.04084935 -0.00320171 -0.038164243 -0.028352126 0.004313329 0.025798883 -0.013577604
0.025372252 0.0121270325 0.004502148 -0.038847912 -0.011788824 -0.017320069 0.0013482033 -0.059024576
0.033016857 0.0054337634 0.013197864 -0.033740077 -0.0053377287 0.025566923 0.012438712 0.018206466
-0.0063245916 -0.03197183 -0.022857005 -0.04996581 -0.0041091223 0.016165659 -0.0077795163 0.017488558
-0.018082438 -0.0004009107 -0.012136645 0.018629037 0.013160532 -0.06456824 -0.022151245 -0.01260626
0.0018973822 0.0015776977 0.006070941 -0.013183945 -0.01517451 -0.031027338 0.017059335 -0.0009739219
-0.014086315 -0.019829923 -0.041354552 0.0057032295 0.008769504 0.004772796 9.088196e-05 0.008263761

fc2.weight f4 [64, 128]
00000000: df22 9bbd e493 37bd 55d7 59bc 373d 1dbd
00000010: b6cf 8f3d 8ded 20bc fb33 12bd a65c be3d
00000020: d88f 95be 4d04 f83c dba4 8fbd d46c 5bbe
00000030: 052f ae3a 0bfa d03b 151a aebe 5fab 2a3d
00000040: 1a73 23bd cc4e b9bc aa51 d43e 727b 6f3d
00000050: 2c2d a33c 6ae8 b33d 9477 c23d eb97 a1bd
00000060: 05c6 3ebd e46d 8f3d b1ae b5be 9bec b1be
00000070: 6542 e0be f85f 9fbc b8d9 f93c a804 a9bd
00000080: 7b06 983d e18b 1bbd ab90 95bd b9ad 6bbc
00000090: 8f0f a0bd 559a 843d 5a67 d63d 8db2 f1bc
000000a0: b83c f33d f9a4 42bb d543 b9bd 8855 9a3c
000000b0: 34df 093d 9e3e cabd 6fd4 a43d 4537 853e
000000c0: b8d6 6bbd 5f77 c2bc fb60 713e eeb8 443d
000000d0: fa78 c73c 9b8a 83bd 8adc c9bd 776c acbd
000000e0: 8ef0 f93c aac8 0abe 147d 6abd 9e87 92bd
000000f0: 1872 dc3d 235f 373d 9aaa 4dbd ff7d 81bd
00000100: de5e 2dbc 2291 c23d 662a 2dbe 71e6 04be
00000110: d6ac 653b f21b 2f3e 1365 50bd aaec d13d
00000120: b8be f4bc f59b bd3d fdaf f53d 3d7f 8a3d
00000130: c712 96bc 4a80 e4bd c0fc 57bb a940 37be
00000140: b331 99bc e644 c9bd 9b56 6e3c aafb 67bd
00000150: 446b 3cbd 8755 383e 529e debd 0b28 653e
00000160: 0eb7 c2bc cafd 793d bf9e b3bd bdb8 a3bd
00000170: 9c39 fc3d 4578 543e 69ff 04bd 2ab6 91be
00000180: 3365 edbd 201c b8bd 2a78 813d 33ea 553e
00000190: cc48 c8bd 0dc3 b2bd 77b1 643d de5b 2bbd
000001a0: 0fdd 883e 80da a8bc 8518 98bd 8888 86bc
000001b0: ff7f 59ba d123 b43b e6b7 86be 231c 71bd
000001c0: 455b adbd 644b eb3c e43e e3bc 30a8 0ebd
000001d0: 1536 813d 7426 e63c fcfb 0abd b094 b8bb
000001e0: 8559 0cbd 1469 8abe f052 af3d 5302 3ebe
000001f0: 2381 af3d 6b3b 6dbc 4fde 903d b5dc 58be
00000200: cb8b 86bd 0c1f bd3c ec84 843d a50b 15bd
00000210: 0318 88be b65e 3d3d c242 2d3d e60e bdbd
00000220: 18a4 d4bc e6ea c5be f5dd 38bd e7e6 803c
00000230: 9fc1 e3be c76a 073d 68a6 ca3c 086d 92bd
00000240: 8bef b5bc 529e c8bb a33f 053e eac8 dfbc
00000250: 8fe7 13bd f2cb acbd 45f5 123d f9e5 933d
00000260: fd14 863d 96c0 b23d 7609 39bd 443b e8bd
00000270: 1ee4 523d a9ae 133d cf24 a3bc 695c 8d3d
00000280: 0afd 97bc d590 103a abc8 1fbd daa8 843c
00000290: 9a0f 32bd 183b 98bd 97ff b1be 8436 043b
000002a0: 15e0 843e 9dc9 6cbe e6f2 aa3c 5643 a83d
000002b0: acb6 c83c 1931 853b 8669 833b df53 27be
000002c0: 8bb0 01bd 5c5a 613d 379b 903e f47a 863b
000002d0: f212 dd3d eea8 10bd 7618 99bd e642 d93c
000002e0: ce26 80bb f4e5 0dbc c07c 823d 9959 813b
000002f0: 73b7 133e edb8 1dbe bf30 3e3e 5e36 203d
00000300: e667 473e ae8d a13c 1082 a5bd f100 8dbb
00000310: f00b f2be 6f16 b63d 3336 59bc 5849 0e3e
00000320: 0e50 63bd 293c 083e e77a 1abd 0c7c 123d
00000330: cbc9 eebe 71fb e3bd 6058 17bc ea0e 823e
00000340: 87a0 1f3d 5c92 b73d d782 dd3c 501a 433c
00000350: 25da 03bd 6e38 4a3d 7f74 a13d 4f97 54bd
00000360: c9fc a0bd 0d94 08bd ac7c b23c 32ce ddbc
00000370: f90a 55bd 4ee1 23be 1dab b0bd afac 1cbe
00000380: efa2 3b3c b113 91be e395 80be c2c4 833d
00000390: bc5f b33c ae30 f93c ce52 a5be 836c 62bd
000003a0: de9f 45be c288 b83c 62ff e3bc b0b5 db3d
000003b0: 9ef1 92be a057 183e 9824 c0bc 76c5 0dbe
000003c0: 9eec 703d 65bf 273d 186b 26bd 7915 3abd
000003d0: 80ee 07bd cdab 78bc 0a0b 61bd ee52 a63d
000003e0: c3cd 783d 33e3 68bd 99d1 0d3c ab6d 9439
000003f0: 2cdf 843d afe6 513d e806 4ebd 0a82 7d3c
-0.075750105 -0.044818774 -0.013295968 -0.038388457 0.070220396 -0.0098222615 -0.035694104 0.09295015
-0.29211307 0.030275488 -0.070138656 -0.21428233 0.0013289159 0.0063774637 -0.34004274 0.04166734
-0.03990469 -0.022620581 0.41468555 0.058467336 0.019919 0.08784564 0.09495464 -0.07890304
-0.046575565 0.07003382 -0.3548484 -0.34750828 -0.43800655 -0.019454941 0.030499324 -0.08252841
0.07423111 -0.037975196 -0.07302984 -0.01438468 -0.078154676 0.06474749 0.104689315 -0.029504085
0.118768156 -0.0029700382 -0.09046141 0.018839613 0.03366013 -0.098752245 0.08048331 0.2601873
-0.05757782 -0.023738561 0.23572151 0.048027925 0.024349678 -0.06422921 -0.098565176 -0.084191255
0.030510213 -0.1355311 -0.05724819 -0.07154773 0.10763949 0.044768464 -0.050211526 -0.0632286
-0.0105817 0.09500338 -0.16910705 -0.12978531 0.0035045645 0.17100504 -0.050877642 0.10250218
-0.029876098 0.09258262 0.11996458 0.0676255 -0.0183195 -0.11157282 -0.0032957047 -0.1789576
-0.018700456 -0.098275945 0.014547016 -0.05663649 -0.046000734 0.18001376 -0.10870041 0.22378556
-0.023768928 0.061033048 -0.08770513 -0.079942204 0.123156756 0.20749004 -0.03247014 -0.28459293
-0.11591568 -0.089897394 0.063217476 0.20890121 -0.0977951 -0.08728609 0.055833306 -0.04183566
0.26731154 -0.020612001 -0.07426552 -0.016422525 -0.0008296966 0.0054974337 -0.26312178 -0.058864724
-0.08464674 0.028722472 -0.02773995 -0.034828365 0.063091435 0.028094508 -0.033931717 -0.0056329593
-0.03426506 -0.27033293 0.08560741 -0.18555574 0.08569553 -0.014479498 0.07073652 -0.21177943
-0.06569632 0.023086093 0.06470665 -0.03638806 -0.2658082 0.0462329 0.042299993 -0.09231357
-0.025957152 -0.38655776 -0.04513355 0.015735103 -0.4448366 0.033060815 0.024737552 -0.07149702
-0.02220895 -0.006122389 0.13012557 -0.027317483 -0.036109503 -0.08437337 0.03587844 0.07221598
0.06546972 0.08728139 -0.04517504 -0.11339429 0.05148708 0.03605524 -0.019915013 0.069023915
-0.018553276 0.0005514746 -0.03900973 0.016193796 -0.04347191 -0.07433146 -0.34765312 0.0020174095
0.2595221 -0.23123784 0.020867776 0.08215968 0.024501167 0.004064691 0.004010382 -0.16340588
-0.031662505 0.055017814 0.2824342 0.0041040126 0.10794629 -0.035317354 -0.07475369 0.026521157
-0.003910876 -0.008660782 0.063714504 0.0039474485 0.14425449 -0.15402575 0.18573283 0.03911435
0.19473228 0.019720878 -0.08081448 -0.0043030907 -0.47274733 0.088909976 -0.013257551 0.13895166
-0.055496268 0.133042 -0.037714865 0.03576283 -0.4663833 -0.11131943 -0.009237379 0.25402004
0.03897145 0.08963463 0.027039928 0.011908129 -0.03219046 0.04937022 0.07883548 -0.05190211
-0.07860715 -0.033344317 0.021787964 -0.02707586 -0.052012417 -0.16003916 -0.08626387 -0.15300249
0.011452421 -0.28335336 -0.25114354 0.06434013 0.021896236 0.03041872 -0.32289737 -0.055279266
-0.19299266 0.022526149 -0.027831737 0.107280135 -0.28699964 0.14877176 -0.02345495 -0.13844857
0.058819406 0.040954012 -0.040629476 -0.045430634 -0.033186436 -0.015177679 -0.05494217 0.08121286
0.060743105 -0.0568573 0.008655929 0.0002831047 0.06487879 0.051245388 -0.050299555 0.015472898

fc2.bias f4 [64]
00000000: 9925 50be 33ca 083e c0f5 143f 50a4 08bd
00000010: 60c9 0a3e c463 74be 805c 41be b428 4d3c
00000020: c8b1 d23d 4979 823e bb35 09bd 1464 a63d
00000030: 7ce8 74bd 7065 3cbe 5949 e73e fed6 c93d
00000040: 3bcf 99be 1e53 fbbc d06b 1f3f ab27 b53d
00000050: d0ef 143d 4b76 193d 113e 993e 8c60 093e
00000060: f0ee 14be ef39 9f3b 4732 9c3e f7d2 edbd
00000070: 9371 82bd f438 8a3e a56d 8cbe 5712 63be
00000080: 720b 25be 99c9 e23e 0d21 613e 1654 90be
00000090: 45a1 043f b01c 6b3e bb06 e93d 78aa c93e
000000a0: d678 ed3c 8390 f0bd f60d 70be 7e10 053f
000000b0: 6133 243d 84c5 733e ffac 91bc 0da2 ad3d
000000c0: 3add dc3d caf8 83bd b883 2ebe 8457 993e
000000d0: bdc0 553e d2c5 55be 7afb 153e b754 64be
000000e0: 51b4 8fbd e9cf 9e3d d68d 8ebe 28ee 9dbd
000000f0: ce7c 543e 3895 05be c232 413e b8d2 c63e
-0.20326842 0.13358383 0.58187485 -0.033359826 0.13553381 -0.23866183 -0.18882942 0.012521911
0.10287815 0.25483158 -0.033498507 0.08124557 -0.059792027 -0.1839807 0.45173147 0.0985546
-0.30040917 -0.030679282 0.62273884 0.08845457 0.036361516 0.03746633 0.29930165 0.13415736
-0.14544272 0.004859201 0.3050711 -0.11612504 -0.06369319 0.26996577 -0.27427402 -0.22174965
-0.16117647 0.44294432 0.21985264 -0.28189152 0.5180858 0.22960162 0.11378237 0.3938787
0.028988283 -0.117463134 -0.23442826 0.5197829 0.04008806 0.23805815 -0.017782686 0.08478174
0.10784383 -0.06443937 -0.17042434 0.29949582 0.20874305 -0.20876244 0.14646712 -0.22297941
-0.070168145 0.077544995 -0.27842587 -0.0771144 0.20750734 -0.13045204 0.18867019 0.3883264

fc3.weight f4 [10, 64]
00000000: 0273 28be 8a91 2b3e d868 03bd b71e 123e
00000010: f077 ccbe 77cf b53d 1145 41be 62e5 a6be
00000020: 6173 9abd d725 c2bd 057c c13d 0890 963d
00000030: 4a20 073e fa47 8dbe 6529 31bd 1e8e 17be
00000040: 4500 2cbe 92e1 eb3d 1e2e 463e 087f 19be
00000050: acb6 68be 6bca 11bd 79ae b23d 7ef4 c93d
00000060: 3e9c b4be 59e9 833e ae0e 113e 8e73 843d
00000070: caa4 8bbe 371e 403e d2bd bebe 0607 88be
00000080: 46fa 3abe 2037 a33d e65c 08bf 2a74 233e
00000090: f190 8e3d 921d 1b3d 8a47 dabe be67 95be
000000a0: bb31 b9be 5c5c 383d 5961 69be ea20 2bbe
000000b0: 39e4 8ebe 0e7b 19bd d59d 9cbe ca7c 1fbe
000000c0: 49d4 4b3d e679 b4be 37e9 83be 37e8 98be
000000d0: c1f9 103e c347 2fbe 9a70 e6bd d21f 45be
000000e0: 13a5 373e e122 c5ba 8ed6 bb3d 6d0d 6e3e
000000f0: eb2f f9bd 6f4f fc3d face 79bd a243 303e
00000100: 8c2e 823e fff9 c4be 4bb6 783e 7ffd b4be
00000110: 2279 76be f172 4abc e9c2 3dbe af68 1abe
00000120: 0808 cb3d 1157 3a3d 5c80 d9bd 5159 aabe
00000130: 7a81 39be 0ac9 62be f040 033e f3d0 81be
00000140: 74e5 833e c28c b9be 1442 fabd b650 8a3d
00000150: 92b3 5ebe 14f2 e3bc 6079 f8be 3c3a 1ebe
00000160: 9a24 003e 1f40 103d 7c7d d13d 9932 ef3d
00000170: d40f a9be f87e 35be b16d fd3d 34fb 243e
00000180: 4dc0 d3bd 55e8 c5bd 42b6 ed3d 4c7b cebc
00000190: 281e 323e 7e83 a8be 181e 813d a0ea 993d
000001a0: 99c5 313d 571b 1d3e ca1b 013e eb0e 91be
000001b0: 691d fdbd c212 aabd 1e94 d5be 5859 dd3d
000001c0: dab3 23be 7ccb aabc e410 5bbe 38e7 e0be
000001d0: 3c17 35be ec26 ce3d 73cb e4bb 49c7 e2bd
000001e0: 6103 943e e0ec 09be f3fc 173e 4dba b3bd
000001f0: ab71 e73a c59e 9dbe ed6d 883d 4483 9fbe
00000200: c1c6 ebbd 2b9c 62be 94a0 76be b4b7 a43c
00000210: 0ab1 9a3d 71d6 023d 67c4 383e f040 023e
00000220: bf5c a93d eff5 e2bd 1a65 a93d 0e17 9fbd
00000230: 0a3a 6abe 1e96 94bd f788 fd3b 1379 42bd
00000240: 3d08 6cbd 2a3b 723d d5af 3cbe 6626 803d
00000250: aaf6 53be 0e9f f63d ad4a 00be 168e e63d
00000260: d210 0a3e d6f7 383e 0ae4 42bd 4e2b 1a3d
00000270: 641c 13bd e8ad 78be 2a9e 163e 7642 21be
00000280: 2f6e ab3d 172b 113e 0ab0 c3bd 8589 283e
00000290: 49a4 69be b261 4a3c 72a0 87be e5fa b0be
000002a0: 7d57 923d a6bb 1dbe 1079 fd3d fdef 17be
000002b0: f33c fdbd f647 5c3e ce2a a7bd 5a66 8d3d
000002c0: ca4d bc3d bbda ce3d e265 03be bef7 5dbe
000002d0: 757f e73d 52ee 0a3e f203 ea3d 75c9 97bd
000002e0: 013c 3fbd 1274 77be 3678 7a3d 033a 48bd
000002f0: bbff 9bbe f4a7 363d c111 63bd 6a0b 8e3d
00000300: d210 8abe 7f61 6fbd 0e86 c5be c818 56be
00000310: 0ca0 da3c d479 f23d 088d f53d cdcf 51be
00000320: 3f2b d0bd ce15 873d 4b58 183e dc75 1abe
00000330: f782 6cbe 0432 19be 607b c3ba ea6d 26bd
00000340: b50d 143e 53ed 87be 9b84 99bd c941 223d
00000350: 469e 57be 57bd fe3d 7f67 413d 9fcb 90bc
00000360: 985e ef3d b086 09be 8af6 ecbc 7a9e e33d
00000370: 49df 8f3d 3df0 8fbd ec23 783c 03c4 873d
00000380: 35fd 223c a3ae 81bd fd16 3dbe e8c5 ae3d
00000390: 05a8 813d 4ef0 3f3d 5e85 7f3d d243 ed3d
000003a0: dd6d ed3d a670 64be a5eb 763d 96b5 71be
000003b0: 1320 f23c ff10 dfbd 91e0 dcbb 573b 95be
000003c0: 0307 213e 7ca8 963d 1fa2 143e 820c 083d
000003d0: c416 1abe 6b02 063e 8424 0a3e 3fad 033e
000003e0: 53ef 5abe 2e0c 1a3e d86d 8fbd a9ea ae3d
000003f0: 7b8d 99be 827b 40be 09fb 93be 10dc 223b
-0.16450122 0.16754737 -0.03208241 0.1426953 -0.39935255 0.088774614 -0.18874003 -0.3259688
-0.07541538 -0.094798736 0.09447483 0.073516905 0.13195911 -0.27593976 -0.043252368 -0.14800307
-0.16796978 0.115176335 0.1935353 -0.14989865 -0.22725934 -0.03559343 0.08724684 0.09861086
-0.35275453 0.25763968 0.14165756 0.06467353 -0.27274162 0.18761526 -0.37254196 -0.26567858
-0.18259534 0.07969499 -0.5326675 0.15962282 0.06961239 0.037869997 -0.42632705 -0.29180712
-0.36170754 0.045009956 -0.22791041 -0.16711774 -0.27908495 -0.03747087 -0.30589166 -0.15574947
0.049762998 -0.3524925 -0.25763866 -0.29864666 0.14157774 -0.17117219 -0.11251946 -0.1925042
0.17934065 -0.0015040302 0.091717824 0.23247309 -0.12167343 0.12319838 -0.060988404 0.172133
0.25426137 -0.38471982 0.24288289 -0.35349652 -0.24069646 -0.012356506 -0.18531384 -0.15078996
0.09913641 0.04549319 -0.10620186 -0.33271268 -0.18115798 -0.22147003 0.1281774 -0.25354728
0.25760996 -0.36240202 -0.12219635 0.06753676 -0.21748188 -0.027825393 -0.48530102 -0.15451902
0.12513962 0.0352174 0.10229012 0.116795726 -0.33019888 -0.17724216 0.123744376 0.16111451
-0.10339413 -0.096634544 0.116070285 -0.025205277 0.17394316 -0.3291282 0.06304568 0.07515454
0.043401334 0.1534246 0.12608257 -0.28331694 -0.12359125 -0.08304359 -0.41714567 0.108080566
-0.15986577 -0.020848982 -0.21393162 -0.43926406 -0.17684644 0.100660175 -0.006982261 -0.11073167
0.28908828 -0.13469267 0.14842586 -0.087757684 0.0017657777 -0.30785194 0.06661592 -0.31154835
-0.11512519 -0.22129886 -0.24084693 0.020107128 0.07553299 0.03194279 0.18043672 0.12720084
0.08269643 -0.11082064 0.08271237 -0.07768069 -0.22873703 -0.07255195 0.0077372747 -0.047478747
-0.057625044 0.059138454 -0.1842645 0.06257324 -0.20699564 0.12042056 -0.12528487 0.112575695
0.13482979 0.18063292 -0.047580756 0.037638955 -0.035915747 -0.2428509 0.14708772 -0.15748009
0.08370625 0.14176594 -0.09555061 0.1645871 -0.22816576 0.012352394 -0.26489598 -0.34566417
0.07145593 -0.15403613 0.123766065 -0.14837642 -0.12365141 0.21511826 -0.08162461 0.06904288
0.091945246 0.10100313 -0.12831834 -0.21676537 0.113036074 0.13567474 0.11426534 -0.07411472
-0.046688084 -0.24165371 0.0611498 -0.04888345 -0.30468544 0.044593766 -0.055436853 0.06935771
-0.26965958 -0.05844259 -0.38578838 -0.20907891 0.026687644 0.11839643 0.1198979 -0.20489426
-0.101644985 0.06595956 0.14877431 -0.15084022 -0.23096834 -0.14960486 -0.0014914088 -0.040632166
0.14458354 -0.26548252 -0.074959956 0.03961352 -0.2105647 0.124384575 0.047217842 -0.01767522
0.11687964 -0.13430285 -0.028926153 0.111142114 0.0702501 -0.07028244 0.015145283 0.06629183
0.009948065 -0.063321374 -0.184658 0.08533841 0.06330875 0.04686003 0.06238305 0.11585201
0.115932204 -0.22308597 0.060283322 -0.23604426 0.02955631 -0.108919136 -0.0067406376 -0.29146835
0.15725331 0.073563546 0.1451497 0.033215053 -0.15047747 0.1308686 0.13490492 0.12859057
-0.21380357 0.15043709 -0.07003373 0.085408516 -0.29990754 -0.18797114 -0.28902462 0.0024850406

fc3.bias f4 [10]
00000000: c7af 323e abec 2cbd eae7 a2be d277 f2bd
00000010: 1c0d 8b3d 325b 70be ba20 e23d 4118 81be
00000020: 352a 3f3f d52d 193e
0.17449866 -0.04221789 -0.3181756 -0.1183926 0.0678961 -0.23472288 0.11041398 -0.25213817
0.7467378 0.1495889
